…
    "train_shuffle_mode": "shard",
    "validation_cache_budget_gb": 40.0,
    "weight_decay": 1e-05
  },
  "input_representation": "npz keys x_distance_image,x_orientation_image,x_geometry,y_distance_m,y_yaw_deg,y_yaw_sin,y_yaw_cos; tri_stream_npz",
  "input_shape": [
    1,
    320,
    320
  ],
  "loss_function": "WeightedMultiTaskHuber(delta=1.0,distance=1.0,orientation=1.0)",
  "model_architecture_summary": "topology_id=distance_regressor_tri_stream_yaw\nmodel_class_name=DistanceRegressorTriStreamYaw\narchitecture_variant=tri_stream_yaw_v0_4\nDistanceRegressorTriStreamYaw(\n  (geom_mlp): Sequential(\n    (0): Linear(in_features=10, out_features=64, bias=True)\n    (1): ReLU(inplace=True)\n    (2): Linear(in_features=64, out_features=64, bias=True)\n    (3): ReLU(inplace=True)\n    (4): Linear(in_features=64, out_features=32, bias=True)\n    (5): ReLU(inplace=True)\n  )\n  (distance_cnn): Sequential(\n    (0): Conv2d(1, 16, kernel_size=(3, 3), stride=(2, 2), padding=(1, 1))\n    (1): GroupNorm(8, 16, eps=1e-05, affine=True)\n    (2): ReLU(inplace=True)\n    (3): Conv2d(16, 32, kernel_size=(3, 3), stride=(2, 2), padding=(1, 1))\n    (4): GroupNorm(8, 32, eps=1e-05, affine=True)\n    (5): ReLU(inplace=True)\n    (6): Conv2d(32, 64, kernel_size=(3, 3), stride=(2, 2), padding=(1, 1))\n    (7): GroupNorm(8, 64, eps=1e-05, affine=True)\n    (8): ReLU(inplace=True)\n    (9): Conv2d(64, 128, kernel_size=(3, 3), stride=(2, 2), padding=(1, 1))\n    (10): GroupNorm(8, 128, eps=1e-05, affine=True)\n    (11): ReLU(inplace=True)\n    (12): Conv2d(128, 128, kernel_size=(3, 3), stride=(2, 2), padding=(1, 1))\n    (13): GroupNorm(8, 128, eps=1e-05, affine=True)\n    (14): ReLU(inplace=True)\n    (15): AdaptiveAvgPool2d(output_size=(1, 1))\n    (16): Flatten(start_dim=1, end_dim=-1)\n  )\n  (orientation_cnn): Sequential(\n    (0): Conv2d(1, 16, kernel_size=(3, 3), stride=(2, 2), padding=(1, 1))\n    (1): GroupNorm(8, 16, eps=1e-05, affine=True)\n    (2): ReLU(inplace=True)\n    (3): Conv2d(16, 32, kernel_size=(3, 3), stride=(2, 2), padding=(1, 1))\n    (4): GroupNorm(8, 32, eps=1e-05, affine=True)\n    (5): ReLU(inplace=True)\n    (6): Conv2d(32, 64, kernel_size=(3, 3), stride=(2, 2), padding=(1, 1))\n    (7): GroupNorm(8, 64, eps=1e-05, affine=True)\n    (8): ReLU(inplace=True)\n    (9): Conv2d(64, 128, kernel_size=(3, 3), stride=(2, 2), padding=(1, 1))\n    (10): GroupNorm(8, 128, eps=1e-05, affine=True)\n    (11): ReLU(inplace=True)\n    (12): Conv2d(128, 128, kernel_size=(3, 3), stride=(2, 2), padding=(1, 1))\n    (13): GroupNorm(8, 128, eps=1e-05, affine=True)\n    (14): ReLU(inplace=True)\n    (15): AdaptiveAvgPool2d(output_size=(1, 1))\n    (16): Flatten(start_dim=1, end_dim=-1)\n  )\n  (camera_trunk): Sequential(\n    (0): Linear(in_features=160, out_features=128, bias=True)\n    (1): ReLU(inplace=True)\n    (2): Identity()\n    (3): Linear(in_features=128, out_features=64, bias=True)\n    (4): ReLU(inplace=True)\n    (5): Identity()\n  )\n  (distance_head): Linear(in_features=64, out_features=1, bias=True)\n  (yaw_trunk): Sequential(\n    (0): Linear(in_features=352, out_features=128, bias=True)\n    (1): ReLU(inplace=True)\n    (2): Identity()\n    (3): Linear(in_features=128, out_features=64, bias=True)\n    (4): ReLU(inplace=True)\n    (5): Identity()\n  )\n  (orientation_head): Linear(in_features=64, out_features=2, bias=True)\n)",
  "model_architecture_variant": "tri_stream_yaw_v0_4",
  "model_class_name": "DistanceRegressorTriStreamYaw",
  "model_name": "260515-1301_ts-2d-cnn",
  "model_topology": {
    "model_class_name": "DistanceRegressorTriStreamYaw",
    "task_contract": {
      "debug_target_columns": [
        "yaw_deg"
      ],
      "heads": {
        "distance": {
          "loss_role": "distance",
…
